pytorch/data/cnn.pth (torch_old, 248579 bytes, 10 tensors)

conv.0.weight f4 [6, 1, 5, 5]
0.28894666 0.24188681 -0.14679483 -0.21721499 -0.08233296 0.2592186 0.24302177 -0.21894476
-0.11108844 -0.17936628 0.15435843 0.30440274 -0.14414482 -0.24895625 -0.114454664 0.26854628
0.02226041 -0.093455896 -0.26440054 -0.010118415 0.34697378 0.2713248 0.06346041 -0.113987155
-0.1323838 0.41636074 0.31327736 0.09706015 0.34386396 0.27083427 0.52524924 0.10220877
0.2586788 0.18040411 0.008891687 0.39689603 0.16055633 -0.17313308 -0.23384535 -0.09233514
0.12359526 -0.16517717 -0.23028466 -0.0014430112 0.026883068 0.29701898 -0.007395818 -0.19406952
-0.13527794 -0.21349026 -0.13736586 0.07955657 0.13303524 0.18444607 0.23111418 0.072507046
-0.056612648 0.32212782 0.41591427 0.05654783 -0.20278852 0.03427638 0.4714149 0.5180767
0.07196435 -0.15909109 0.26960862 0.5836289 0.57631487 0.26211447 -0.038444404 0.17411456
0.27144465 0.45035502 0.34759614 0.12825252 0.22574082 -0.091225974 0.026144577 -0.18123634
0.0067703044 0.008960417 0.20814194 -0.09653841 0.23203617 0.03131633 -0.1825765 0.23913886
0.2276179 -0.03166959 -0.1670781 -0.04532897 -0.14911601 -0.11601313 0.13603207 -0.21926479
0.043279562 -0.19236526 -0.12989935 0.031786494 -0.09530556 0.1779804 -0.04827796 -0.18332979
-0.19971362 -0.081492834 -0.042506576 0.023581468 -0.12049288 0.029540356 -0.15936667 0.083747625
-0.123381674 -0.14815736 0.19917986 -0.113712646 0.12778717 -0.123355456 -0.10761997 -0.124065384
-0.021420509 0.020338675 -0.1181281 0.031348508 0.0669275 0.37657526 0.48811138 0.40792847
0.39730647 -0.048623677 0.2947205 0.36200634 0.6510727 0.5735243 0.34069225 0.14563929
0.5801737 0.5476206 0.34715843 0.42705724 0.01868537 0.050124228 -0.029989075 0.31109282
0.4954232 -0.41417763 -0.28334245 -0.14346422 0.19597107 0.34338057
00000000: d1f0 933e 2db1 773e 6251 16be 9b6d 5ebe
00000010: 2f9e a8bd 4db8 843e b3da 783e 0e33 60be
00000020: 5682 e3bd cbab 37be 2310 1e3e adda 9b3e
00000030: b39a 13be 63ee 7ebe 3567 eabd e67e 893e
00000040: 775b b63c ce65 bfbd 825f 87be b5c7 25bc
00000050: 8ca6 b13e 16eb 8a3e 88f7 813d 1972 e9bd
00000060: 9e8f 07be 3c2d d53e e465 a03e 79c7 c63d
00000070: f00e b03e caaa 8a3e bc76 063f d552 d13d
00000080: 8c71 843e dbbb 383e 70ae 113c f535 cb3e
00000090: e168 243e cc49 31be 2875 6fbe 351a bdbd
000000a0: 831f fd3d 3424 29be becf 6bbe 6c23 bdba
000000b0: e139 dc3c df12 983e 9e58 f2bb 29ba 46be
000000c0: 4d86 0abe 319d 5abe a3a9 0cbe 8eee a23d
000000d0: 643a 083e 6edf 3c3e 32a9 6c3e 937e 943d
000000e0: aae2 67bd f0ed a43e b7f2 d43e b39e 673d
000000f0: cba7 4fbe 6465 0c3d 4b5d f13e ada0 043f
00000100: 0c62 933d c6e8 22be 240a 8a3e b468 153f
00000110: 5f89 133f de33 863e e177 1dbd 164b 323e
00000120: cbfa 8a3e ef94 e63e 1ff8 b13e a154 033e
00000130: 9a28 673e afd4 babd 272d d63c 0596 39be
00000140: 6ed9 dd3b b6ce 123c 2923 553e eeb5 c5bd
00000150: e49a 6d3e 8d45 003d 56f5 3abe d1e0 743e
00000160: ab14 693e f9b7 01bd 8516 2bbe dfaa 39bd
00000170: deb1 18be 4b98 edbd fe4b 0b3e f386 60be
00000180: e945 313d 66fb 44be 5604 05be 8e32 023d
00000190: 902f c3bd 7e40 363e 1cbf 45bd ceba 3bbe
000001a0: ba81 4cbe b7e5 a6bd 601b 2ebd ec2d c13c
000001b0: f9c4 f6bd 9efe f13c 0431 23be e083 ab3d
000001c0: 88af fcbd 90b6 17be cef5 4b3e 2de2 e8bd
000001d0: a4da 023e c9a1 fcbd dc67 dcbd fe15 febd
000001e0: 107a afbc 4b9d a63c 25ed f1bd 4b67 003d
000001f0: 4911 893d 79ce c03e bce9 f93e 00dc d03e
00000200: c16b cb3e 9f29 47bd 9be5 963e e558 b93e
00000210: b3ac 263f 7dd2 123f 376f ae3e 7722 153e
00000220: 4386 143f dd30 0c3f c0be b13e 3fa7 da3e
00000230: 1012 993c 104f 4d3d a6ab f5bc 8f47 9f3e
00000240: 1ca8 fd3e 170f d4be 4312 91be 49e8 12be
00000250: a4ac 483e 94cf af3e

conv.0.bias f4 [6]
0.06464321 0.23308732 0.000675881 0.3303953 -0.062349778 0.03121464
00000000: a963 843d 71ae 6e3e 9b2d 313a 9329 a93e
00000010: 7b62 7fbd d8b5 ff3c

conv.3.weight f4 [16, 6, 5, 5]
0.06946507 -0.0024244483 -0.07969604 -0.009296479 0.06031214 0.03638303 -0.017175112 0.046773963
0.0030052182 0.0043544155 -0.01323034 0.07385772 0.047339864 -0.0440343 -0.047923744 -0.061558593
-0.03489266 -0.05473008 -0.020149127 -0.01757039 0.0709865 0.017238218 -0.0065146363 -0.07670157
0.048897497 -0.054973383 -0.079960585 -0.020546474 0.061734777 -0.03508154 -0.0049466495 0.033722296
-0.040819798 0.023946473 0.011434514 -0.0406528 0.079425275 -0.07178527 -0.011670852 -0.041354865
0.019400598 -0.08189591 0.016062582 -0.04255499 -0.0021943122 -0.02756506 0.055271912 0.0038178088
-0.0071166973 -0.062130522 0.04514331 0.11537991 -0.011696955 -0.02256876 -0.031431064 0.061270513
0.082418345 -0.044083852 0.015426808 -0.0070168474 -0.03860811 -0.100242056 -0.040971655 0.007682183
-0.067895405 -0.015762383 0.018176645 -0.035335165 -0.06390634 0.03485059 -0.03444851 0.032660794
0.00581196 0.07877179 -0.016560085 -0.06344118 -0.07984666 0.026322253 0.07056933 0.04341018
-0.05590215 0.082853355 -0.02399715 -0.007869545 -0.059009187 -0.011188452 0.0005602843 -0.048887
0.06445065 0.046010762 0.004216746 -0.03125422 0.016200658 0.017246375 -0.026372824 -0.07493529
0.02913244 0.05869277 0.03995932 0.033511054 -0.021437094 -0.06814235 -0.0121292705 0.066455945
-0.081329204 -0.050493374 0.0012241624 -0.059463456 0.012272406 0.032602694 0.017565073 -0.06877098
-0.02597301 -0.050528705 -0.054055322 -0.062482852 -0.056917083 -0.056439616 -0.0554303 0.04866818
0.015679233 0.08137737 0.07783575 0.051927567 -0.064097285 0.05142325 -0.0136600975 0.08722122
-0.011653588 0.05728247 -0.010067471 0.068929754 0.10998223 0.04044274 -0.013734109 0.011669149
-0.08943883 -0.028874565 -0.08693794 -0.08600634 -0.07395653 -0.07988634 -0.082677715 0.048480697
-0.077208005 0.054444585 -0.040225416 0.044242635 0.059025455 0.042797655 -0.03040542 -0.00073701923
-0.026518166 0.1221753 0.05775053 -0.11802429 -0.08412324 -0.07361732 0.124278486 0.085871555
-0.05959921 -0.030192364 -0.015782716 0.1386876 0.036730938 0.014275189 -0.0050565004 0.100947425
0.06071499 -0.018119838 0.05875169 0.043008704 -0.019482126 -0.100267254 -0.08758406 -0.08501597
-0.07981629 -0.07868964 -0.009191988 0.077647835 -0.07628646 -0.11093415 0.041845135 0.10446719
-0.018311357 -0.09846858 0.04627103 -8.391236e-05 0.13034831 -0.03369049 -0.08363646 0.07748252
0.11848123 -0.051459882 -0.043444585 -0.022285089 0.061256863 0.061194237 -0.02785193 -0.12546125
-0.0628349 0.060568415 0.14806888 0.07498934 -0.0662568 0.024215063 0.094846785 0.1806882
0.0721025 -0.06192395 0.08224813 0.20584504 0.029407522 -0.1237975 -0.08237833 0.05749049
0.09965044 -0.0024262886 -0.119480364 -0.06762464 -0.024256963 -0.069581166 -0.1219752 -0.1060771
0.036220565 -0.041471884 -0.044880822 0.0034814528 0.017844664 0.010075231 -0.044840824 0.0021302197
-0.058948528 0.020548688 -0.018331675 -0.036064103 -0.027754195 -0.09088717 -0.06572466 -0.014339337
0.0052332003 0.032233194 -0.088089064 -0.07618353 -0.032109898 -0.08125294 -0.08114581 0.025466586
-0.051753774 -0.009522918 -0.040414944 0.06179265 -0.022556433 -0.074602306 -0.0016451164 0.015416343
00000000: b443 8e3d 7ee3 1ebb ad37 a3bd 4250 18bc
00000010: dd09 773d 5f06 153d d2b2 8cbc 0e96 3f3d
00000020: 32f3 443b 7caf 8e3b 11c4 58bc b742 973d
00000030: 72e7 413d 4f5d 34bd b04b 44bd dd24 7cbd
00000040: 9beb 0ebd a62c 60bd c80f a5bc c7ef 8fbc
00000050: 5f61 913d 2a37 8d3c bb78 d5bb b615 9dbd
00000060: be48 483d c52b 61bd 60c2 a3bd 1451 a8bc
00000070: 9bdd 7c3d a9b1 0fbd 8117 a2bb 6420 0a3d
00000080: a932 27bd 652b c43c d457 3b3c 8d83 26bd
00000090: b8a9 a23d 2804 93bd 1a37 3fbc b863 29bd
000000a0: 01ee 9e3c 0bb9 a7bd ad95 833c 244e 2ebd
000000b0: 73ce 0fbb 1fd0 e1bc cd64 623d 3434 7a3b
000000c0: 2f33 e9bb 937c 7ebd 31e8 383d 4d4c ec3d
000000d0: 96a4 3fbc 1fe2 b8bc dcbd 00bd caf6 7a3d
000000e0: f3ca a83d 4591 34bd b9c0 7c3c 95ed e5bb
000000f0: 8a23 1ebd b54b cdbd e5d1 27bd d2ba fb3b
00000100: bf0c 8bbd 1d20 81bc 30e7 943c 9bbb 10bd
00000110: 54e1 82bd 7ebf 0e3d e119 0dbd 53c7 053d
00000120: 4172 be3b 1b53 a13d 04a9 87bc 73ed 81bd
00000130: a586 a3bd c4a1 d73c a786 903d dfce 313d
00000140: a7f9 64bd 05af a93d ac95 c4bc 44ef 00bc
00000150: 9eb3 71bd c54f 37bc 0be0 123a bc3d 48bd
00000160: b4fe 833d c875 3c3d a12c 8a3b 6d04 00bd
00000170: 3eb7 843c 4548 8d3c d20b d8bc ac77 99bd
00000180: 28a7 ee3c d467 703d 62ac 233d e342 093d
00000190: d89c afbc 378e 8bbd d9b9 46bc 0e1a 883d
000001a0: ed8f a6bd 24d2 4ebd 1374 a03a f48f 73bd
000001b0: 3412 493c 678a 053d a1e4 8f3c cdd7 8cbd
000001c0: 5ac5 d4bc 30f7 4ebd 1d69 5dbd 05ee 7fbd
000001d0: e321 69bd 3a2d 67bd e20a 63bd 4958 473d
000001e0: bc71 803c 2ea9 a63d 5a68 9f3d 00b2 543d
000001f0: 7045 83bd 30a1 523d 9ace 5fbc 0aa1 b23d
00000200: b1ee 3ebc 06a1 6a3d 09f2 24bc 0b2b 8d3d
00000210: 5d3e e13d 49a7 253d 0705 61bc f52f 3f3c
00000220: b52b b7bd 5a8a ecbc 850c b2bd 1824 b0bd
00000230: 8576 97bd 739b a3bd ef52 a9bd b293 463d
00000240: 3b1f 9ebd 4901 5f3d 68c3 24bd c437 353d
00000250: adc4 713d 984c 2f3d ca14 f9bc 8634 41ba
00000260: a03c d9bc 0b37 fa3d d28b 6c3d b8b6 f1bd
00000270: ce48 acbd adc4 96bd b885 fe3d 6ddd af3d
00000280: 4d1e 74bd fa55 f7bc c14a 81bc 1f04 0e3e
00000290: 2e73 163d 7be2 693c 00b1 a5bb 86bd ce3d
000002a0: 48b0 783d 0e70 94bc 9da5 703d e529 303d
000002b0: fb98 9fbc eb58 cdbd 465f b3bd da1c aebd
000002c0: b976 a3bd 0928 a1bd fe99 16bc d405 9f3d
000002d0: 133c 9cbd 7231 e3bd ce65 2b3d e5f2 d53d
000002e0: b301 96bc e5a9 c9bd b186 3d3d 1bfa afb8
000002f0: 077a 053e 0aff 09bd 9849 abbd 28af 9e3d
00000300: 4aa6 f23d 99c7 52bd f3f2 31bd 388f b6bc
00000310: 7ae8 7a3d cfa6 7a3d bb29 e4bc ea78 00be
00000320: 96af 80bd 9616 783d 5e9f 173e 0394 993d
00000330: a5b1 87bd ab5e c63c 083f c23d 5406 393e
00000340: 7aaa 933d f8a3 7dbd b571 a83d 0bc9 523e
00000350: 0be8 f03c 8b89 fdbd f8b5 a8bd 267b 6b3d
00000360: 8815 cc3d 5e02 1fbb 1fb2 f4bd ca7e 8abd
00000370: 8ab6 c6bc 9280 8ebd 22ce f9bd f33e d9bd
00000380: 045c 143d 6cde 29bd f4d4 37bd 1629 643b
00000390: f92e 923c 9512 253c 03ab 37bd 289b 0b3b
000003a0: 0374 71bd b955 a83c 4f2c 96bc f4b7 13bd
000003b0: c45c e3bc 0d23 babd a79a 86bd 8aef 6abc
000003c0: 447b ab3b f406 043d 0a68 b4bd 1c06 9cbd
000003d0: ab85 03bd f167 a6bd c62f a6bd 4d9f d03c
000003e0: c4fb 53bd 0306 1cbc 248a 25bd 4a1a 7d3d
000003f0: 45c8 b8bc 18c9 98bd f2a0 d7ba d494 7c3c

conv.3.bias f4 [16]
-0.0014982678 -0.018425843 0.051140413 0.0077605653 0.057908628 -0.045276776 0.007909278 -0.026802717
-0.037182968 0.043651823 0.044535823 -0.04802669 -0.030023206 0.025578162 -0.07375723 0.030088283
00000000: 8661 c4ba cbf1 96bc 9c78 513d 574c fe3b
00000010: 9931 6d3d 2474 39bd eb95 013c 5f91 dbbc
00000020: 2b4d 18bd 41cc 323d 326b 363d a2b7 44bd
00000030: 3af3 f5bc 4b89 d13c 080e 97bd b47b f63c

fc.0.weight f4 [120, 400]
0.04080747 -0.0032173097 -0.03456751 0.04702153 -0.012369235 -0.033152595 0.03369613 0.029328262
0.003484273 0.026158914 0.04171168 -0.032664284 0.04321864 0.038340632 0.042156946 -0.02637289
-0.0022662887 0.0003404452 -0.024432333 -0.030332476 0.00067966717 0.038941592 -0.03395558 -0.030180588
-0.011677877 -0.0063779997 -0.021571768 0.04283701 -0.035757247 -0.020794155 0.012610979 -0.034308203
-0.033747964 -0.0162989 0.03211678 0.022510463 -0.036836572 -0.025566738 0.038896818 -0.020700118
-0.030024488 0.035804413 -0.016373286 0.022335451 -0.013622492 0.03083171 0.035948474 0.052511375
-0.02240285 -0.036368366 0.005429914 -0.03462694 -0.035606652 -0.039840195 -0.0029926023 0.042025827
-0.0018441156 -0.060751487 -0.033582177 -0.014764488 -0.021049054 0.042486984 -0.037648976 -0.046619296
0.009166232 0.06241221 0.032460425 0.03256598 -0.016698642 -0.031099379 0.051635925 0.025092063
0.0075952336 0.014311565 0.03174937 0.029643107 0.0037093072 -0.049975388 -0.034685425 -0.027637525
0.0062295464 -0.01694142 -0.013909098 0.0046579535 -0.022402808 0.0028247952 0.022400487 0.0050997017
-0.014501575 0.027272146 0.008467382 0.019268006 -0.0018837479 -0.014390339 -0.0077468245 -0.037901558
0.0021140496 0.044807866 -0.032052193 0.028835418 0.0036641394 -0.031986494 0.040391013 7.050476e-05
0.016465439 -0.05452175 -0.045662116 0.0505376 -0.07457231 -0.010096126 -0.069651216 0.031414393
-0.00834577 -0.011466331 -0.058974966 0.025874399 -0.029297281 0.041025583 -0.040912215 0.044369902
0.0010467694 0.018389193 -0.04180256 0.055529132 0.06246832 0.046084 0.02239974 0.069589
-0.0147417 0.02211924 0.02789216 -0.0138211325 -0.012825012 -0.020710682 0.008583759 0.020951785
-0.015527373 -0.04296569 -0.054528307 0.012785621 0.053427458 -0.030800078 -0.014542641 0.03584421
0.017402869 -0.003303922 -0.045307808 0.023431059 -0.002386335 0.007804731 -0.017534371 0.015994208
-0.004468691 -0.0090319775 0.03274761 -0.015335635 -0.044657238 -0.027020888 0.037913237 -0.04033807
-0.03390509 0.0013300302 0.008165604 0.04045767 0.014228901 -0.026020536 -0.027437834 -0.060128752
-0.011561331 -0.014813332 0.014046504 0.021036962 -0.024028525 -0.07290392 0.027950887 -0.05653049
-0.049149938 -0.026360538 0.03225051 -0.03277242 0.011248721 0.014012972 0.045526456 0.0051770736
0.016276276 0.067133196 0.048218593 0.01512599 0.041789267 0.011086406 0.013104159 0.010998996
0.009654437 -0.01934124 0.041010052 -0.016601162 -0.017523885 0.08083159 -0.014027714 0.06947701
-0.04576596 -0.03233736 -0.031747993 0.0014471802 -0.046476547 0.021404803 -0.038049757 -0.028639067
0.006365806 -0.018814323 -0.027474375 -0.0117391525 -0.016012762 0.029096471 -0.022931911 -0.048353545
0.06428718 0.06029665 -0.037624575 -0.03739236 -0.01809469 -0.03784356 -0.026120387 0.020601073
-0.034426387 0.040343437 -0.039987758 -0.031178828 0.029924233 -0.0038186633 0.030394372 0.052068993
-0.054644234 0.016840525 -0.03343199 -0.012776039 -0.008536748 0.007470292 0.019983841 0.048865348
-0.007852314 0.0148493815 -0.024111403 -0.0088469125 0.02105648 0.011608716 -0.014893486 -0.007712784
-0.0260374 0.031182915 0.049990065 0.0040318966 0.05384214 0.037505195 -0.036558576 0.037772752
00000000: bc25 273d 80d9 52bb a996 0dbd a699 403d
00000010: 55a8 4abc 04cb 07bd f404 0a3d d341 f03c
00000020: 6758 643b 384b d63c ded9 2a3d fcca 05bd
00000030: 0706 313d 110b 1d3d c3ac 2c3d f60b d8bc
00000040: 0486 14bb c87d b239 5126 c8bc d07b f8bc
00000050: b12b 323a 3881 1f3d 0215 0bbd 483d f7bc
00000060: 9154 3fbc 8afe d0bb 47b7 b0bc dc75 2f3d
00000070: 3176 12bd 8158 aabc 489e 4e3c c286 0cbd
00000080: 4e3b 0abd 4585 85bc e28c 033d dd67 b83c
00000090: f2e1 16bd 5671 d1bc 4552 1f3d 4b93 a9bc
000000a0: eaf5 f5bc a6a7 123d 4521 86bc d6f8 b63c
000000b0: df30 5fbc c892 fc3c b53e 133d 2b16 573d
000000c0: 2f86 b7bc fff6 14bd 6ced b13b fad4 0dbd
000000d0: 48d8 11bd 792f 23bd 891f 44bb 4623 2c3d
000000e0: 40b6 f1ba 8dd6 78bd 778d 09bd c0e6 71bc
000000f0: 116f acbc d506 2e3d d035 1abd e0f3 3ebd
00000100: f72d 163c f2a3 7f3d 39f5 043d e863 053d
00000110: 97cb 88bc 20c4 febc 3180 533d df8d cd3c
00000120: 70e1 f83b 0e7b 6a3c a10b 023d 1ad6 f23c
00000130: d917 733b feb2 4cbd 4e12 0ebd 1768 e2bc
00000140: 3921 cc3b bcc8 8abc fce2 63bc bfa1 983b
00000150: 1886 b7bc 3320 393b 3a81 b73c 661b a73b
00000160: 0498 6dbc d669 df3c c6ba 0a3c f0d7 9d3c
00000170: 17e8 f6ba 75c5 6bbc 13d9 fdbb aa3e 1bbd
00000180: de8b 0a3b 7488 373d 2949 03bd 4138 ec3c
00000190: 0f22 703b 4504 03bd 0c71 253d f4db 9338
000001a0: 87e2 863c 3352 5fbd 3308 3bbd 8400 4f3d
000001b0: 5eb9 98bd 396a 25bc 4ca5 8ebd 61ac 003d
000001c0: b2bc 08bc 47dd 3bbc bc8f 71bd 8cf6 d33c
000001d0: da00 f0bc 710a 283d 9193 27bd 37bd 353d
000001e0: c133 893a efa4 963c 2939 2bbd 8472 633d
000001f0: c8de 7f3d 94c2 3c3d a97f b73c ad84 8e3d
00000200: 2c87 71bc 6933 b53c 197e e43c 0872 62bc
00000210: 0020 52bc 73a9 a9bc e5a2 0c3c 14a3 ab3c
00000220: 8666 7ebc cbfc 2fbd 1359 5fbd c87a 513c
00000230: c0d6 5a3d 7250 fcbc 4244 6ebc 61d1 123d
00000240: 7690 8e3c 9d86 58bb ae94 39bd 7ef2 bf3c
00000250: 0f64 1cbb d4be ff3b 3ea4 8fbc 4906 833c
00000260: 196e 92bb dcfa 13bc 5c22 063d 5142 7bbc
00000270: 82ea 36bd e95a ddbc e94a 1b3d 8839 25bd
00000280: 10e0 0abd 6854 ae3a 07c9 053c f1b6 253d
00000290: 5620 693c 0529 d5bc 4fc5 e0bc 9149 76bd
000002a0: bd6b 3dbc 9eb3 72bc 4f23 663c b555 ac3c
000002b0: 78d7 c4bc a74e 95bd 42f9 e43c 848c 67bd
000002c0: 7251 49bd 0ef2 d7bc 1c19 043d 603c 06bd
000002d0: 8e4c 383c aa96 653c f379 3a3d 71a4 a93b
000002e0: d355 853c 217d 893d dc80 453d 00d3 773c
000002f0: 392b 2b3d c2a3 353c d4b2 563c 2235 343c
00000300: a52d 1e3c 8571 9ebc 28fa 273d 29ff 87bc
00000310: 408e 8fbc 088b a53d 7fd4 65bc f649 8e3d
00000320: 1675 3bbd 2e74 04bd 2f0a 02bd 4faf bd3a
00000330: 315e 3ebd 2059 af3c 10da 1bbd 7a9c eabc
00000340: 4098 d03b 7f20 9abc f111 e1bc 9355 40bc
00000350: 322d 83bc b95b ee3c b4db bbbc 5e0e 46bd
00000360: ffa8 833d 9ff9 763d 3a1c 1abd bb28 19bd
00000370: 513b 94bc d901 1bbd 6cfa d5bc 95c3 a83c
00000380: af02 0dbd 293f 253d 34ca 23bd be6a ffbc
00000390: aa23 f53c 8a42 7abb 9efd f83c 4c46 553d
000003a0: a2d2 5fbd 24f5 893c fbef 08bd 9752 51bc
000003b0: b7dd 0bbc 5ac9 f43b 27b5 a33c 0827 483d
000003c0: fea6 00bc d24a 733c 4785 c5bc a4f2 10bc
000003d0: a47e ac3c 7c32 3e3c cf03 74bc 86bb fcbb
000003e0: 634c d5bc 5073 ff3c 62c2 4c3d 001e 843b
000003f0: 9389 5c3d 0c9f 193d 72be 15bd 9ab7 1a3d

fc.0.bias f4 [120]
-0.02622351 -0.026760835 0.04568295 -0.03132243 0.036529098 -0.025822824 0.030284246 -0.046363227
0.04681508 0.053883053 -0.024962772 -0.007782016 0.015595062 -0.0197049 -0.0037943167 0.014399365
0.023165671 0.040076327 -0.039548326 -0.009880935 0.02452826 -0.041367598 -0.026564825 -0.0038129457
-0.023750423 0.029314186 0.034086213 0.003276287 0.016113292 -0.029921073 -0.037770707 0.016120201
0.04744327 0.04247398 0.013452962 0.037531618 0.016083581 -0.034247592 -0.031190312 -0.0155039355
0.011125137 -7.398354e-05 0.011600028 -0.012656603 0.028788995 -0.023472445 -0.0047891377 -0.029005306
-0.029073099 -0.015073634 -0.0010020043 0.04373827 0.029600196 0.0073198634 -0.018409856 -0.040314943
0.013816582 0.026776602 -0.025097223 -0.044501677 -0.008585462 -0.0023943016 0.032883447 -0.0028169828
-0.0051809843 -0.012416342 -0.018784797 -0.014590759 0.049662195 0.013619185 0.02315118 -0.017385483
-0.052670088 -0.035153273 -0.042203773 0.040327225 0.034205344 0.024175618 0.007608462 0.028972954
0.046197016 0.042591456 -0.011002725 -0.017991904 -0.0053661005 0.008690631 -0.0077579627 0.044925693
-0.026015187 0.030201249 -0.04098282 -0.00365903 0.03733726 -0.020030124 0.033845108 0.029217921
0.03050735 -0.025425272 0.030754935 0.03842982 0.02883154 0.007952551 0.051579636 -0.029575499
-0.03274968 -0.004825102 0.0343027 -0.001523411 0.016234446 0.0049808472 -0.0063689556 0.03502835
-0.04793761 -0.04214877 0.017939832 0.035331678 0.027935196 -0.039106734 0.016094627 0.04388301
00000000: b0d2 d6bc 8a39 dbbc 0c1e 3b3d f34b 00bd
00000010: 899f 153d 638a d3bc ab16 f83c 5ee7 3dbd
00000020: 2bc1 3f3d 7ab4 5c3d ba7e ccbc 4800 ffbb
00000030: 6e82 7f3c 2c6c a1bc 12aa 78bb 50eb 6b3c
00000040: efc5 bd3c 1327 243d 6dfd 21bd a5e3 21bc
00000050: 7def c83c 1271 29bd 7a9e d9bc 9de2 79bb
00000060: 3f90 c2bc 4e24 f03c fc9d 0b3d fab6 563b
00000070: 0600 843c 0a1d f5bc 75b5 1abd 830e 843c
00000080: e053 423d 32f9 2d3d d069 5c3c c1ba 193d
00000090: b7c1 833c 3447 0cbd d382 ffbc 3804 7ebc
000000a0: 3546 363c 9c27 9bb8 0b0e 3e3c a45d 4fbc
000000b0: e6d6 eb3c 4949 c0bc 33ee 9cbb 899c edbc
000000c0: b52a eebc 67f7 76bc af55 83ba e626 333d
000000d0: 1c7c f23c 77db ef3b 44d0 96bc 4821 25bd
000000e0: f25e 623c 9b5a db3c b198 cdbc 6447 36bd
000000f0: 0aaa 0cbc b7e9 1cbb cbb0 063d 219d 38bb
00000100: 3fc5 a9bb ea6d 4bbc 93e2 99bc 140e 6fbc
00000110: 966a 4b3d 0123 5f3c 8ba7 bd3c 006c 8ebc
00000120: 97bc 57bd e1fc 0fbd dddd 2cbd 292e 253d
00000130: e71a 0c3d f20b c63c 6850 f93b b058 ed3c
00000140: 1539 3d3d 6174 2e3d c644 34bc c263 93bc
00000150: 1dd6 afbb 2663 0e3c 8236 febb 0104 383d
00000160: cd1d d5bc 9c68 f73c 9add 27bd 56cc 6fbb
00000170: f4ee 183d 3716 a4bc 2ba1 0a3d 6c5a ef3c
00000180: 8dea f93c a948 d0bc c6f1 fb3c 9668 1d3d
00000190: 1f30 ec3c 6b4b 023c 2b45 533d 5148 f2bc
000001a0: 8724 06bd e41b 9ebb fd80 0c3d 31ad c7ba
000001b0: 1afe 843c 6036 a33b acb2 d0bb e379 0f3d
000001c0: 3a5a 44bd 30a4 2cbd 8ef6 923c f3b7 103d
000001d0: 5ad8 e43c 622e 20bd e1d8 833c acbe 333d

fc.1.weight f4 [84, 120]
0.00032751152 -0.023404082 0.06890328 -0.0025305855 -0.06595831 0.012579178 0.07952303 -0.08055538
0.0532379 0.11598705 -0.017379079 -0.055387776 0.019397732 0.051108047 -0.037368458 0.013662649
0.082251765 -0.009575314 0.015208397 0.105376296 -0.042875078 0.08458171 -0.086998865 -0.10099746
-0.031567466 0.048363373 -0.041697804 -0.027264358 0.04094811 -0.058962315 -0.027895235 -0.006316698
-0.012197244 0.053543538 0.080450535 -0.08210507 -0.0112482095 -0.02499893 -0.045438584 -0.029863594
0.013423951 -0.034791566 -0.017330477 -0.020857822 0.06108662 -0.0118500125 0.04308869 -0.00067595654
0.04297596 -0.0057783294 0.010276381 -0.107452236 -0.01760211 0.0038086527 -0.03286672 0.07106484
0.009557101 -0.009931632 -0.06171895 0.06267551 0.0033419111 -0.0266233 0.057027355 -0.075197585
0.00023281522 0.034922622 -0.009837501 0.02262958 0.0342323 0.12264071 -0.07776829 -0.06441135
-0.07235686 -0.090026185 0.0013 0.04962973 -0.041952983 0.051971998 0.05647039 0.048989613
0.006421054 -0.07409128 -0.042206768 -0.11335944 0.03035319 0.056664467 -0.018479867 -0.0035913987
0.07086573 -0.061750006 0.05585772 0.14417845 0.09160277 0.038562085 -0.010731509 -0.014970963
0.059555203 -0.054870926 -0.09677702 0.07793934 0.105389796 0.104608744 -0.023829293 -0.05936499
-0.14361903 -0.00087827543 -0.11912853 0.081745766 -0.062481176 0.02415077 0.012091337 0.024897775
-0.062107325 0.04068675 0.010854683 0.06192447 -0.016850377 0.0029087344 0.062551886 -0.07812258
-0.033837616 0.08165801 0.0045058453 -0.099039614 -0.027809286 -0.080593586 0.06804249 -0.07597457
-0.07762355 0.001515572 0.025407124 0.02689014 -0.060379565 0.035287257 -0.0047264276 0.08591411
0.0762523 -0.06823547 0.027507612 -0.0752212 0.067249134 -0.02735423 0.019275047 0.023234894
-0.052187033 0.046836954 -0.01731865 0.015044546 -0.06511981 0.04662614 -0.0063990676 0.081042
0.07528942 0.057892524 0.017336551 0.08873638 0.011674092 0.012753002 -0.0035576988 -0.07313199
-0.037277684 0.03531011 0.045416925 0.059714217 0.022124412 0.01639577 0.0120320115 0.042156354
-0.073318966 0.052244995 -0.02157752 0.028896177 -0.047171865 0.009457171 0.012116426 0.051580794
0.004908548 0.045441564 0.06726047 -0.0010490331 -0.041765943 0.030422617 -0.00830514 -0.06766211
-0.07183838 0.06325451 -0.0053578783 0.090463795 0.053603064 0.02221119 0.042806923 -0.07704062
-0.08215516 -0.02479999 -0.009728801 0.0685593 -0.04960196 0.013811957 -0.04126282 -0.07067562
0.09868913 0.070031755 -0.03879598 -0.031675514 0.04540063 0.09332612 0.0749934 0.07995816
0.054465152 0.0029653914 0.0356701 0.036318555 0.0285629 -0.07133516 0.060036324 0.043473057
0.041222725 -0.025570357 0.05114532 0.04900102 -0.097929694 -0.025940103 -0.024699204 -0.03232493
0.09153693 0.04285268 0.050041404 -0.02493863 -0.090866506 0.056412023 -0.083663724 -0.0051334263
-0.037498437 -0.0605101 -0.08464003 0.061973426 0.044013288 -0.0370629 -0.07693135 0.048967883
-0.07898175 -0.001177681 -0.045169275 0.042784102 0.05016878 -0.0669513 0.028020237 -0.035556886
0.101713 0.10362029 -0.047368206 0.11988263 0.037226282 -0.019864809 0.033343416 -0.020671073
00000000: dab5 ab39 ebb9 bfbc 2a1d 8d3d 2ed8 25bb
00000010: 2715 87bd e618 4e3c f8dc a23d 38fa a4bd
00000020: fc0f 5a3d 9e8a ed3d 925e 8ebc 4bde 62bd
00000030: fee7 9e3c ac56 513d ab0f 19bd 4ed9 5f3c
00000040: 9d73 a83d c7e1 1cbc a42c 793c 87cf d73d
00000050: c79d 2fbd 2d39 ad3d 762c b2bd c2d7 cebd
00000060: e34c 01bd ac18 463d 51cb 2abd 8159 dfbc
00000070: 35b9 273d 7882 71bd 8c84 e4bc 4efc cebb
00000080: f3d6 47bc 7850 5b3d 40c3 a43d b426 a8bd
00000090: 694a 38bc 8eca ccbc cf1d 3abd 7fa4 f4bc
000000a0: 22f0 5b3c 9a81 0ebd a5f8 8dbc 06de aabc
000000b0: f735 7a3d 8e26 42bc c47d 303d ad32 31ba
000000c0: 8f07 303d 2458 bdbb 445e 283c eb0f dcbd
000000d0: 4d32 90bc 979a 793b 419f 06bd 718a 913d
000000e0: 6395 1c3c 49b8 22bc 02cd 7cbd 055c 803d
000000f0: f703 5b3b 1b19 dabc 8495 693d 3101 9abd
00000100: dc1f 7439 060b 0f3d 782d 21bc ab61 b93c
00000110: 2b37 0c3d 0d2b fb3d fb44 9fbd 19ea 83bd
00000120: d52f 94bd a65f b8bd c364 aa3a 8b48 4b3d
00000130: e4d6 2bbd 97e0 543d 7f4d 673d 55a9 483d
00000140: b467 d23b 2bbd 97bd 01e1 2cbd fe28 e8bd
00000150: 41a7 f83c 0019 683d 1763 97bc ac5d 6bbb
00000160: 0d22 913d 93ed 7cbd 11cb 643d 84a3 133e
00000170: 3c9a bb3d 47f3 1d3d 36d3 2fbc c548 75bc
00000180: 28f0 733d 56c0 60bd 0833 c6bd a99e 9f3d
00000190: 9bd6 d73d 1c3d d63d a635 c3bc b428 73bd
000001a0: de10 13be 113c 66ba a9f9 f3bd 536a a73d
000001b0: 43ec 7fbd d6d7 c53c be1a 463c 6bf6 cb3c
000001c0: 4064 7ebd 26a7 263d d7d7 313c 83a4 7d3d
000001d0: cd09 8abc 77a0 3e3b 341b 803d bbfe 9fbd
000001e0: 5099 0abd 513c a73d c5a5 933b 48d5 cabd
000001f0: 4dd0 e3bc 400e a5bd dc59 8b3d 8e98 9bbd
00000200: 19f9 9ebd 28a6 c63a 9a22 d03c b648 dc3c
00000210: 9050 77bd 5f89 103d 26e0 9abb bdf3 af3d
00000220: 2a2a 9c3d 0abf 8bbd a557 e13c 930d 9abd
00000230: eab9 893d fa15 e0bc b4e6 9d3c 1b57 be3c
00000240: 12c2 55bd 1bd8 3f3d d7df 8dbc 667d 763c
00000250: 895d 85bd 0dfb 3e3d 45af d1bb 59f9 a53d
00000260: 5731 9a3d b620 6d3d 6205 8e3c 6bbb b53d
00000270: b144 3f3c f8f1 503c 4828 69bb 3ac6 95bd
00000280: 7cb0 18bd 55a1 103d 1907 3a3d e596 743d
00000290: 413e b53c 6c50 863c ea21 453c 24ac 2c3d
000002a0: 4128 96bd d9fe 553d 57c3 b0bc adb7 ec3c
000002b0: 4937 41bd 40f2 1a3c f983 463c 6246 533d
000002c0: e3d7 a03b ef20 3a3d dbbf 893d b67f 89ba
000002d0: c412 2bbd da38 f93c 4812 08bc 6f92 8abd
000002e0: 0020 93bd 958b 813d 2491 afbb 1545 b93d
000002f0: e38e 5b3d 3ef4 b53c 5056 2f3d 79c7 9dbd
00000300: f740 a8bd 5929 cbbc 8d65 1fbc d168 8c3d
00000310: 6d2b 4bbd 8c4b 623c 3403 29bd 61be 90bd
00000320: 871d ca3d cf6c 8f3d 89e8 1ebd 2fbe 01bd
00000330: 03f6 393d c421 bf3d 2496 993d 1bc1 a33d
00000340: da16 5f3d 0357 423b d01a 123d c4c2 143d
00000350: befc e93c 2b18 92bd a6e8 753d ce10 323d
00000360: 29d9 283d ed78 d1bc c17d 513d 4bb5 483d
00000370: 5d8f c8bd 5780 d4bc fc55 cabc 2567 04bd
00000380: b777 bb3d 4b86 2f3d 37f8 4c3d 194c ccbc
00000390: 3818 babd 4b10 673d e357 abbd 4d36 a8bb
000003a0: f697 19bd 70d9 77bd c157 adbd d9d7 7d3d
000003b0: 4747 343d 44cf 17bd 2f8e 9dbd 8c92 483d
000003c0: 2fc1 a1bd 6b5c 9aba 6b03 39bd 623e 2f3d
000003d0: c77d 4d3d c31d 89bd b28a e53c 19a4 11bd
000003e0: e84e d03d e036 d43d 2a05 42bd 0685 f53d
000003f0: 967a 183d 86bb a2bc 1b93 083d 6256 a9bc

fc.1.bias f4 [84]
-0.08511407 -0.05524975 0.08671021 0.0023875725 -0.026617182 -0.05919771 -0.08497588 3.5783214e-05
-0.03155644 0.019870142 -0.029777607 -0.053347673 0.021619719 0.0725914 0.037202656 -0.034998387
-0.039538156 -0.012312796 0.06586737 -0.08922482 0.06417782 0.02852297 -0.08730047 0.07276801
-0.0021547636 -0.0033300307 0.08444711 -0.047964826 0.07049849 0.048115794 0.02757468 -0.037051637
-0.029047294 -0.050804395 -0.051960804 -0.006389814 0.0050318968 -0.06369512 0.061037853 0.002570367
0.049899206 -0.01358255 0.00065741927 -0.059017856 -0.013582981 -0.06878227 0.09844178 0.039577734
-0.08445615 0.040904157 0.004374145 0.052284446 -0.059729196 0.08106695 -0.0741698 0.044862397
-0.01201702 0.024512367 -0.032542534 -0.05934139 0.014708329 -0.05868695 0.02619304 0.0269944
-0.017686943 -0.061684933 0.06829948 0.01414577 0.02168922 0.028282752 -0.07212374 0.06762743
0.047417678 0.08708242 0.06721143 -0.038204547 0.07764524 0.030924771 -0.01976319 0.06436328
0.048275214 -0.024369586 0.01672116 -0.04545407
00000000: 4950 aebd 904d 62bd 1f95 b13d d278 1c3b
00000010: 470c dabc 4c79 72bd d607 aebd ef15 1638
00000020: 5341 01bd b5c6 a23c 2bf0 f3bc 1783 5abd
00000030: d61b b13c cdaa 943d d061 183d 785a 0fbd
00000040: c3f2 21bd 9cbb 49bc 79e5 863d 81bb b6bd
00000050: a96f 833d 01a9 e93c 97ca b2bd 6507 953d
00000060: ef36 0dbb a53c 5abb 9bf2 ac3d c476 44bd
00000070: 8361 903d 1115 453d 4ce4 e13c 75c3 17bd
00000080: 97f4 edbc 4518 50bd dad4 54bd a561 d1bb
00000090: 9ce2 a43b 9672 82bd d402 7a3d 9a73 283b
000000a0: 1c63 4c3d 5889 5ebc a956 2c3a b5bc 71bd
000000b0: 278b 5ebc b8dd 8cbd d89b c93d 431c 223d
000000c0: 59f7 acbd 1e8b 273d fd54 8f3b 3728 563d
000000d0: 9aa6 74bd 6e06 a63d 56e6 97bd a2c1 373d
000000e0: 09e3 44bc 29ce c83c 524b 05bd f50f 73bd
000000f0: 34fb 703c ba61 70bd c992 d63c 5c23 dd3c
00000100: 35e4 90bc 57a9 7cbd 99e0 8b3d a9c3 673c
00000110: 97ad b13c 3bb1 e73c 9db5 93bd 4080 8a3d
00000120: 0a39 423d 4558 b23d 25a6 893d 5f7c 1cbd
00000130: 7804 9f3d f255 fd3c 6ae6 a1bc e5d0 833d
00000140: 3bbc 453d baa2 c7bc d0fa 883c 0c2e 3abd

fc.2.weight f4 [10, 84]
0.055642027 -0.08120077 -0.022475908 0.059479028 0.21806243 0.03485714 0.12766449 0.12949854
0.07449357 0.007815535 -0.011498432 0.124539465 -0.0151482215 -0.03187827 -0.07883932 0.07289325
-0.14664707 -0.062881194 0.060516708 -0.0136289 0.09986784 -0.097226046 0.10944369 0.13549824
-0.16086058 0.014896799 -0.023750262 0.092739955 -0.083838865 -0.042406693 0.054228052 0.1551779
0.046831597 0.17538728 0.13274951 -0.09766825 -0.13708955 -0.026603537 -0.028278274 -0.14382294
-0.11360083 0.11683816 -0.115237445 0.011120524 -0.116003186 -0.050862014 0.034853186 0.03086725
-0.075417265 -0.22549364 -0.18505754 0.16800354 -0.11229694 -0.04615975 0.21693923 -0.03567708
0.07653024 0.093390904 0.07848501 -0.103462234 0.0036786853 0.088340774 0.057551872 -0.07293621
-0.1455762 0.122168094 -0.20840615 0.14995803 0.03269509 0.23485972 -0.1581366 0.0019712062
0.23418106 -0.11139979 -0.0043004383 -0.04130892 0.12340586 -0.06250087 -0.019565996 -0.01658257
-0.11644425 0.0022071349 -0.08516629 -0.04672973 0.028721724 0.064348936 -0.17536603 0.006643554
0.051496044 0.12920612 -0.0100067565 0.18826938 -0.034185145 0.10525508 0.19594696 0.012540418
0.17073694 -0.1947998 -0.107334785 -0.18979317 0.004407348 -0.13786086 -0.17734541 0.13713604
0.011063475 -0.1332571 0.18252327 -0.021388017 0.11899539 0.034789596 -0.09616679 0.10437918
-0.10229772 -0.1885295 -0.00534725 -0.010379042 0.10779738 -0.09155592 -0.14711079 0.020202966
-0.06004241 -0.17398985 0.12601756 0.14499746 -0.03882217 0.08249846 0.112051696 -0.05885288
0.033650607 0.15445958 0.06518216 0.021147335 -0.09145365 0.16523434 0.14131398 -0.0012996682
0.08249092 -0.16305539 0.10635804 -0.062445875 0.14299154 -0.121464744 0.16639984 0.041701965
-0.112018526 -0.07864968 -0.14419633 0.09516547 0.16840193 -0.09451 0.054239288 0.12994848
-0.11845077 -0.027057901 -0.059500244 -0.1546167 -0.21405737 -0.061174963 -0.0039819265 0.2565603
-0.16185872 -0.15943737 0.08868083 -0.08461252 0.04589891 -0.0016504995 0.060210664 -0.124970965
-0.041224193 -0.029520784 -0.19516298 0.11875343 0.030640436 0.07830097 -0.06591819 -0.0061825756
-0.09535938 -0.16413763 0.19752139 -0.112369046 0.24161628 0.24367417 -0.106918365 0.15362164
-0.002558319 -0.011059852 0.106727526 -0.15286714 0.037759025 -0.22634877 -0.14532517 0.01659714
0.026349988 0.06679613 -0.10198685 0.1393452 -0.13519627 0.03017871 -0.109284654 0.021943145
-0.013580095 0.029270759 -0.078161865 -0.047633283 0.03902876 -0.09920413 -0.024569055 0.20484434
0.18601532 0.08989589 -0.016539196 -0.028460687 0.12202346 -0.009354913 -0.09557808 0.13241696
-0.1308562 -0.074009255 -0.037554257 -0.10156945 0.041659087 -0.10700172 0.15227607 0.024216339
0.07916803 0.20187664 -0.079581544 -0.13057698 0.14975896 -0.18199769 -0.117591515 0.017656075
0.12120947 0.06464593 0.15277149 0.161809 -0.117113695 0.09421704 0.042963892 -0.1928695
0.12187663 -0.017461859 -0.121214494 0.06786402 0.0040738597 -0.016261397 -0.13587879 -0.13909791
0.15198024 -0.004876595 -0.22697587 0.14663316 -0.11878113 0.08511071 -0.044375475 0.2405692
00000000: e5e8 633d 974c a6bd 651f b8bc 48a0 733d
00000010: c24b 5f3e 5cc6 0e3d 7bba 023e 449b 043e
00000020: 1690 983d bb0c 003c eb63 3cbc 8c0e ff3d
00000030: 3f30 78bc ca92 02bd 8276 a1bd 0e49 953d
00000040: a62a 16be dbc7 80bd 5ee0 773d c04b 5fbc
00000050: 8387 cc3d 731e c7bd 0324 e03d 0dc0 0a3e
00000060: a3b8 24be b411 743c e98f c2bc 72ee bd3d
00000070: b6b3 abbd a4b2 2dbd 3c1e 5e3d f5e6 1e3e
00000080: 7dd2 3f3d b998 333e 7def 073e 4b06 c8bd
00000090: 3461 0cbe a9ef d9bc d7a7 e7bc 5246 13be
000000a0: 8da7 e8bd d848 ef3d 9c01 ecbd dc32 363c
000000b0: 1493 edbd b054 50bd 37c2 0e3d 51dd fc3c
000000c0: 5e74 9abd cee7 66be b97f 3dbe 1f09 2c3e
000000d0: f0fb e5bd 0212 3dbd 5125 5e3e 2122 12bd
000000e0: e3bb 9c3d bb43 bf3d c0bc a03d 02e4 d3bd
000000f0: 1916 713b 02ec b43d 83bb 6b3d 945f 95bd
00000100: ed11 15be 4433 fa3d 6c68 55be 998e 193e
00000110: 49eb 053d 117f 703e 90ee 21be 5a2f 013b
00000120: 29cd 6f3e 9325 e4bd b1ea 8cbb 8b33 29bd
00000130: 36bc fc3d 7500 80bd de48 a0bc 2bd8 87bc
00000140: 537a eebd 94a5 103b aa6b aebd ac67 3fbd
00000150: d249 eb3c 60c9 833d 2793 33be 2cb2 d93b
00000160: 84ed 523d 9c4e 043e 61f3 23bc b0c9 403e
00000170: b905 0cbd fa8f d73d 52a6 483e 5376 4d3c
00000180: aad5 2e3e 9979 47be 57d2 dbbd 2459 42be
00000190: 846b 903b 662b 0dbe 099a 35be 646d 0c3e
000001a0: 9443 353c 8d74 08be 61e7 3a3e ec35 afbc
000001b0: dbb3 f33d 897f 0e3d 18f3 c4bd c0c4 d53d
000001c0: 7881 d1bd e10d 41be fc37 afbb db0c 2abc
000001d0: dfc4 dc3d ac81 bbbd 36a4 16be b180 a53c
000001e0: 08ef 75bd 652a 32be bf0a 013e 377a 143e
000001f0: ff03 1fbd f4f4 a83d 5c7b e53d b80f 71bd
00000200: 38d5 093d a72a 1e3e 397e 853d 2d3d ad3c
00000210: 0d4c bbbd 3133 293e 9db4 103e a159 aaba
00000220: 00f1 a83d fef7 26be 3ed2 d93d 3fc7 7fbd
00000230: 606c 123e 82c2 f8bd b864 2a3e aecf 2a3d
00000240: f869 e5bd 1513 a1bd 34a8 13be 1de6 c23d
00000250: 8e71 2c3e 758e c1bd 042a 5e3d 3711 053e
00000260: 5196 f2bd 88a8 ddbc 87b6 73bd d753 1ebe
00000270: db31 5bbe 9992 7abd d27a 82bb df5b 833e
00000280: 4bbe 25be 8d43 23be 4c9e b53d 5449 adbd
00000290: 7f00 3c3d 9355 d8ba 759f 763d c7f0 ffbd
000002a0: b3da 28bd 92d5 f1bc ced8 47be 0035 f33d
000002b0: a701 fb3c 425c a03d 1e00 87bd 3497 cabb
000002c0: c74b c3bd b213 28be 0c43 4a3e be21 e6bd
000002d0: 426a 773e b985 793e 04f8 dabd fe4e 1d3e
000002e0: 78a9 27bb 6234 35bc f693 da3d 3489 1cbe
000002f0: 35a9 1a3d f9c7 67be 1fd0 14be baf6 873c
00000300: eedb d73c 69cc 883d 7bde d0bd 82b0 0e3e
00000310: e470 0abe 5839 f73c a2d0 dfbd 1cc2 b33c
00000320: 0c7f 5ebc 3bc9 ef3c 5413 a0bd 1e1b 43bd
00000330: 9fdc 1f3d 892b cbbd 0b45 c9bc b7c2 513e
00000340: cd7a 3e3e 561b b83d 357d 87bc 6326 e9bc
00000350: 70e7 f93d 5945 19bc 71be c3bd 5098 073e
00000360: 2bff 05be 2a92 97bd 7ed2 19bd a503 d0bd
00000370: b8a2 2a3d b823 dbbd 42ee 1b3e 5861 c63c
00000380: d922 a23d c0b8 4e3e a6fb a2bd f9b5 05be
00000390: 6a5a 193e 9a5d 3abe d2d3 f0bd 79a3 903c
000003a0: ac3c f83d 1665 843d 2170 1c3e 42b1 253e
000003b0: 4ed9 efbd ddf4 c03d e8fa 2f3d 957f 45be
000003c0: 749a f93d 2c0c 8fbc 4e3f f8bd 4bfc 8a3d
000003d0: 037e 853b 9f36 85bc cf23 0bbe af6f 0ebe
000003e0: b5a0 1b3e d8cb 9fbb 5d6c 68be 0127 163e
000003f0: 8543 f3bd 864e ae3d 0fc3 35bd c657 763e

fc.2.bias f4 [10]
-0.04301265 0.11984769 -0.07643999 0.053623855 -0.03652495 0.022952642 -5.5581135e-05 -0.050899155
-0.045998663 0.049564447
00000000: 082e 30bd b572 f53d 928c 9cbd b0a4 5b3d
00000010: 309b 15bd 2e07 bc3c ca1f 69b8 a27b 50bd
00000020: 1869 3cbd 1704 4b3d
